api/Synapse/api/model/garden/iris_dnn.tflite (tflite, 2936 bytes, 6 tensors)

sequential_4/dense_14/BiasAdd/ReadVariableOp f4 [3]
2.9588737e-05 -0.07115075 0.1152689
00000000: 5435 f837 7cb7 91bd 1a12 ec3d

sequential_4/dense_13/BiasAdd/ReadVariableOp f4 [10]
0.0 0.0 0.0 -0.0917814 -0.032829266 0.015397446 0.2344783 0.024307482
-0.026055735 0.14597866
00000000: 0000 0000 0000 0000 0000 0000 e3f7 bbbd
00000010: fb77 06bd 9245 7c3c 141b 703e 7c20 c73c
00000020: d672 d5bc 6e7b 153e

sequential_4/dense_12/BiasAdd/ReadVariableOp f4 [10]
0.031576663 -0.10317489 0.0 0.0 0.0 -0.121884525 0.21290913 0.0
0.0 0.0
00000000: 8856 013d 5b4d d3bd 0000 0000 0000 0000
00000010: 0000 0000 989e f9bd da04 5a3e 0000 0000
00000020: 0000 0000 0000 0000

sequential_4/dense_12/MatMul f4 [10, 4]
0.11872675 -0.06641394 0.29051226 0.29626226 0.38807815 -0.71758604 0.30281812 0.88419336
-0.09977472 0.071323514 0.038020253 -0.5845306 -0.2894922 -0.5949414 0.11578041 -0.444617
-0.6445722 -0.3940578 -0.121768 0.19382882 0.38582665 -0.30059633 -0.7263122 0.4391822
0.767739 0.14777295 -0.51827943 -0.2644517 -0.5574167 -0.40837282 -0.18910614 0.19443774
-0.029558897 -0.37302706 -0.34989905 0.47353673 -0.13299322 -0.4530329 0.17601633 0.43019176
00000000: 0327 f33d 0804 88bd 06be 943e b0af 973e
00000010: 2eb2 c63e b8b3 37bf fa0a 9b3e 7f5a 623f
00000020: b056 ccbd 1012 923d 20bb 1b3d cca3 15bf
00000030: 5238 94be 144e 18bf 481e ed3d d7a4 e3be
00000040: af02 25bf f2c1 c9be 8061 f9bd 107b 463e
00000050: 128b c53e c3e7 99be 99ef 39bf 7ddc e03e
00000060: 8b8a 443f cb51 173e f6ad 04bf 3766 87be
00000070: dcb2 0ebf 3e16 d1be 0aa5 41be b01a 473e
00000080: 8025 f2bc 67fd bebe f825 b3be 6873 f23e
00000090: 602f 08be eef3 e7be a03d 343e 1842 dc3e

sequential_4/dense_13/MatMul f4 [10, 10]
-0.44836724 -0.43338615 -0.48967642 0.1424008 0.31765854 0.27458394 -0.4337758 -0.14950424
-0.1786559 -0.086812824 -0.26914057 -0.13442323 0.27573693 0.05036956 0.2312482 0.3835888
-0.4961828 -0.14414468 0.13743573 0.18829465 0.005697012 -0.06891951 0.36203706 0.4553131
0.27497166 -0.13350272 -0.38782126 -0.48197073 0.5321299 -0.48025364 0.23328282 0.1957459
0.29329425 0.46857703 -0.24328128 0.07277363 0.5027844 0.19691104 0.31246537 -0.053698003
-0.283186 0.23387334 -0.4176932 0.38411087 0.3276149 -0.38318104 -0.07975656 -0.18060619
0.5030261 0.21118385 0.49009544 0.60181 0.3642543 0.32511222 0.08767694 0.11208174
0.08636925 -0.3800943 -0.04127407 0.21351093 0.36320877 -0.6072865 -0.034759164 -0.32463098
0.44348103 -0.46893242 0.5215604 0.102126 -0.3276883 -0.25750914 0.14909434 0.3276573
0.2602951 -0.41533884 -0.031454027 -0.44798338 0.2641034 -0.026426315 -0.52536917 -0.32089883
-0.12837476 -0.4716256 -0.54331917 0.25258887 0.43344283 -0.05349312 0.5071942 -0.02585131
-0.328575 -0.091890335 -0.19333129 -0.49867535 0.22366893 -0.48505872 0.21838903 -0.41483673
0.554698 0.33239925 -0.46432328 -0.012533605
00000000: 6490 e5be cae4 ddbe deb6 fabe 84d1 113e
00000010: 24a4 a23e 4496 8c3e dd17 debe a417 19be
00000020: 92f1 36be ecca b1bd cbcc 89be 3ea6 09be
00000030: 642d 8d3e 5050 4e3d 54cc 6c3e c065 c43e
00000040: ac0b febe aa9a 13be f4bb 0c3e 50d0 403e
00000050: 00ae ba3b ac25 8dbd ec5c b93e cc1e e93e
00000060: 16c9 8c3e f0b4 08be 8290 c6be dec4 f6be
00000070: aa39 083f cee3 f5be b1e1 6e3e 9d71 483e
00000080: aa2a 963e 54e9 ef3e ba1e 79be 570a 953d
00000090: 7ab6 003f 0ca3 493e 76fb 9f3e 70f2 5bbd
000000a0: c1fd 90be 7e7c 6f3e e2db d5be 2eaa c43e
000000b0: 24bd a73e 4e30 c4be 6857 a3bd d4f0 38be
000000c0: 52c6 003f 9440 583e caed fa3e 3810 1a3f
000000d0: 8a7f ba3e 1c75 a63e f88f b33d 1c8b e53d
000000e0: 5de2 b03d b89b c2be 000f 29bd 9ca2 5a3e
000000f0: 80f6 b93e 2177 1bbf a05f 0ebd 0836 a6be
00000100: f20f e33e e917 f0be fb84 053f 7027 d13d
00000110: c3c6 a7be 3dd8 83be 30ac 183e b3c2 a73e
00000120: 6645 853e 4ba7 d4be f0d5 00bd 145e e5be
00000130: 9038 873e 007c d8bc 987e 06bf da4c a4be
00000140: ac74 03be e978 f1be f716 0bbf 5453 813e
00000150: 38ec dd3e 9a1b 5bbd 7bd7 013f 20c6 d3bc
00000160: fb3a a8be 0031 bcbd a3f8 45be 6052 ffbe
00000170: 7809 653e 9e59 f8be 60a1 5f3e 7b65 d4be
00000180: b000 0e3f 3c30 aa3e c8bb edbe c059 4dbc

sequential_4/dense_14/MatMul f4 [3, 10]
0.31393743 0.041136265 0.0030209422 -0.04060076 0.19153488 -0.6182392 0.94202715 -0.26211044
-0.16225041 0.96200234 0.677166 -0.37850428 -0.66617674 0.23397563 -0.28755006 0.3146186
0.37081468 -0.14509146 -0.36778122 -0.6667035 0.38617504 0.42008495 -0.00736475 -0.3342786
-0.29841405 0.65950745 -1.0677649 0.19781 -0.29262438 -0.6620508
00000000: 68bc a03e 807e 283d 00fb 453b fc4c 26bd
00000010: b821 443e ed44 1ebf b128 713f 5733 86be
00000020: f924 26be c945 763f c05a 2d3f 50cb c1be
00000030: 8f8a 2abf 4f97 6f3e c339 93be b015 a13e
00000040: 6cdb bd3e db92 14be d24d bcbe 15ad 2abf
00000050: bcb8 c53e 6015 d73e 0054 f1bb 9126 abbe
00000060: bac9 98be 7bd5 283f 85ac 88bf b48e 4a3e
00000070: ddd2 95be 297c 29bf
